Model: "functional_16"
┏━━━━━━━━━━━━━━━━━━━━━━━━━━━┳━━━━━━━━━━━━━━━━━━━━━━━━┳━━━━━━━━━━━━━━━━┳━━━━━━━━━━━━━━━━━━━━━━━━┓
┃ Layer (type)              ┃ Output Shape           ┃        Param # ┃ Connected to           ┃
┡━━━━━━━━━━━━━━━━━━━━━━━━━━━╇━━━━━━━━━━━━━━━━━━━━━━━━╇━━━━━━━━━━━━━━━━╇━━━━━━━━━━━━━━━━━━━━━━━━┩
│ input_layer_16            │ (None, 60, 52)         │              0 │ -                      │
│ (InputLayer)              │                        │                │                        │
├───────────────────────────┼────────────────────────┼────────────────┼────────────────────────┤
│ gru_21 (GRU)              │ (None, 60, 192)        │        141,696 │ input_layer_16[0][0]   │
├───────────────────────────┼────────────────────────┼────────────────┼────────────────────────┤
│ batch_normalization_67    │ (None, 60, 192)        │            768 │ gru_21[0][0]           │
│ (BatchNormalization)      │                        │                │                        │
├───────────────────────────┼────────────────────────┼────────────────┼────────────────────────┤
│ dropout_60 (Dropout)      │ (None, 60, 192)        │              0 │ batch_normalization_6… │
├───────────────────────────┼────────────────────────┼────────────────┼────────────────────────┤
│ lstm_18 (LSTM)            │ (None, 60, 143)        │        192,192 │ dropout_60[0][0]       │
├───────────────────────────┼────────────────────────┼────────────────┼────────────────────────┤
│ batch_normalization_68    │ (None, 60, 143)        │            572 │ lstm_18[0][0]          │
│ (BatchNormalization)      │                        │                │                        │
├───────────────────────────┼────────────────────────┼────────────────┼────────────────────────┤
│ dropout_61 (Dropout)      │ (None, 60, 143)        │              0 │ batch_normalization_6… │
├───────────────────────────┼────────────────────────┼────────────────┼────────────────────────┤
│ bidirectional_7           │ (None, 60, 34)         │         16,524 │ dropout_61[0][0]       │
│ (Bidirectional)           │                        │                │                        │
├───────────────────────────┼────────────────────────┼────────────────┼────────────────────────┤
│ batch_normalization_69    │ (None, 60, 34)         │            136 │ bidirectional_7[0][0]  │
│ (BatchNormalization)      │                        │                │                        │
├───────────────────────────┼────────────────────────┼────────────────┼────────────────────────┤
│ dropout_62 (Dropout)      │ (None, 60, 34)         │              0 │ batch_normalization_6… │
├───────────────────────────┼────────────────────────┼────────────────┼────────────────────────┤
│ dense_39 (Dense)          │ (None, 60, 43)         │          1,505 │ dropout_62[0][0]       │
├───────────────────────────┼────────────────────────┼────────────────┼────────────────────────┤
│ batch_normalization_70    │ (None, 60, 43)         │            172 │ dense_39[0][0]         │
│ (BatchNormalization)      │                        │                │                        │
├───────────────────────────┼────────────────────────┼────────────────┼────────────────────────┤
│ dense_40 (Dense)          │ (None, 60, 1)          │             44 │ batch_normalization_7… │
├───────────────────────────┼────────────────────────┼────────────────┼────────────────────────┤
│ flatten_7 (Flatten)       │ (None, 60)             │              0 │ dense_40[0][0]         │
├───────────────────────────┼────────────────────────┼────────────────┼────────────────────────┤
│ activation_7 (Activation) │ (None, 60)             │              0 │ flatten_7[0][0]        │
├───────────────────────────┼────────────────────────┼────────────────┼────────────────────────┤
│ repeat_vector_7           │ (None, 34, 60)         │              0 │ activation_7[0][0]     │
│ (RepeatVector)            │                        │                │                        │
├───────────────────────────┼────────────────────────┼────────────────┼────────────────────────┤
│ permute_7 (Permute)       │ (None, 60, 34)         │              0 │ repeat_vector_7[0][0]  │
├───────────────────────────┼────────────────────────┼────────────────┼────────────────────────┤
│ multiply_7 (Multiply)     │ (None, 60, 34)         │              0 │ dropout_62[0][0],      │
│                           │                        │                │ permute_7[0][0]        │
├───────────────────────────┼────────────────────────┼────────────────┼────────────────────────┤
│ lambda_7 (Lambda)         │ (None, 34)             │              0 │ multiply_7[0][0]       │
├───────────────────────────┼────────────────────────┼────────────────┼────────────────────────┤
│ dense_41 (Dense)          │ (None, 47)             │          1,645 │ lambda_7[0][0]         │
├───────────────────────────┼────────────────────────┼────────────────┼────────────────────────┤
│ batch_normalization_71    │ (None, 47)             │            188 │ dense_41[0][0]         │
│ (BatchNormalization)      │                        │                │                        │
├───────────────────────────┼────────────────────────┼────────────────┼────────────────────────┤
│ dropout_63 (Dropout)      │ (None, 47)             │              0 │ batch_normalization_7… │
├───────────────────────────┼────────────────────────┼────────────────┼────────────────────────┤
│ direction_output (Dense)  │ (None, 1)              │             48 │ dropout_63[0][0]       │
└───────────────────────────┴────────────────────────┴────────────────┴────────────────────────┘
 Total params: 1,064,636 (4.06 MB)
 Trainable params: 354,572 (1.35 MB)
 Non-trainable params: 918 (3.59 KB)
 Optimizer params: 709,146 (2.71 MB)
