Model: "functional_17"
┏━━━━━━━━━━━━━━━━━━━━━━━━━━━━━━━━━━━━━━┳━━━━━━━━━━━━━━━━━━━━━━━━━━━━━┳━━━━━━━━━━━━━━━━━┓
┃ Layer (type)                         ┃ Output Shape                ┃         Param # ┃
┡━━━━━━━━━━━━━━━━━━━━━━━━━━━━━━━━━━━━━━╇━━━━━━━━━━━━━━━━━━━━━━━━━━━━━╇━━━━━━━━━━━━━━━━━┩
│ input_layer_17 (InputLayer)          │ (None, 60, 52)              │               0 │
├──────────────────────────────────────┼─────────────────────────────┼─────────────────┤
│ gru_23 (GRU)                         │ (None, 60, 465)             │         724,005 │
├──────────────────────────────────────┼─────────────────────────────┼─────────────────┤
│ batch_normalization_72               │ (None, 60, 465)             │           1,860 │
│ (BatchNormalization)                 │                             │                 │
├──────────────────────────────────────┼─────────────────────────────┼─────────────────┤
│ dropout_64 (Dropout)                 │ (None, 60, 465)             │               0 │
├──────────────────────────────────────┼─────────────────────────────┼─────────────────┤
│ lstm_19 (LSTM)                       │ (None, 180)                 │         465,120 │
├──────────────────────────────────────┼─────────────────────────────┼─────────────────┤
│ batch_normalization_73               │ (None, 180)                 │             720 │
│ (BatchNormalization)                 │                             │                 │
├──────────────────────────────────────┼─────────────────────────────┼─────────────────┤
│ dropout_65 (Dropout)                 │ (None, 180)                 │               0 │
├──────────────────────────────────────┼─────────────────────────────┼─────────────────┤
│ dense_42 (Dense)                     │ (None, 223)                 │          40,363 │
├──────────────────────────────────────┼─────────────────────────────┼─────────────────┤
│ batch_normalization_74               │ (None, 223)                 │             892 │
│ (BatchNormalization)                 │                             │                 │
├──────────────────────────────────────┼─────────────────────────────┼─────────────────┤
│ dropout_66 (Dropout)                 │ (None, 223)                 │               0 │
├──────────────────────────────────────┼─────────────────────────────┼─────────────────┤
│ dense_43 (Dense)                     │ (None, 103)                 │          23,072 │
├──────────────────────────────────────┼─────────────────────────────┼─────────────────┤
│ batch_normalization_75               │ (None, 103)                 │             412 │
│ (BatchNormalization)                 │                             │                 │
├──────────────────────────────────────┼─────────────────────────────┼─────────────────┤
│ dropout_67 (Dropout)                 │ (None, 103)                 │               0 │
├──────────────────────────────────────┼─────────────────────────────┼─────────────────┤
│ price_output (Dense)                 │ (None, 1)                   │             104 │
└──────────────────────────────────────┴─────────────────────────────┴─────────────────┘
 Total params: 2,511,156 (9.58 MB)
 Trainable params: 1,254,606 (4.79 MB)
 Non-trainable params: 1,942 (7.59 KB)
 Optimizer params: 1,254,608 (4.79 MB)
